weights/rula.pth (torch, 156143 bytes, 8 tensors)

input_layer.weight f4 [128, 36]
0	0xbe1d07ec	-0.15335053
1	0x3d091f4d	0.033477116
2	0xbd16b06e	-0.03678935
3	0x3e1dc005	0.15405281
4	0x3d250657	0.04028925
5	0xbc2da50e	-0.010598434
6	0x3e815286	0.25258273
7	0x3e0f7716	0.14010271
8	0x3dbb7bb7	0.09154456
9	0x3ed1352e	0.40860885
10	0xbeac11b0	-0.33607244
11	0x3d879b86	0.066214606
12	0xbe9e3abc	-0.30904186
13	0x3eaa6f05	0.33287826
14	0x3f0f5bb2	0.5599929
15	0xbcdecc8c	-0.027197145
16	0x3e3b53c7	0.18293677
17	0x3f964cfb	1.1742243
18	0xbb29fedc	-0.0025939262
19	0xbda339a4	-0.079699785
20	0xbf007a72	-0.50186837
21	0x3e0bc6a2	0.13649991
22	0xbe84571b	-0.25847706
23	0xbc02a1f5	-0.007973184
24	0xbe8fed00	-0.28110504
25	0xbd438226	-0.04773154
26	0xbdc6f14b	-0.09713992
27	0x3e1ff904	0.15622336
28	0xbd35aff2	-0.044357248
29	0xbdabda02	-0.08391191
30	0x3e259e7c	0.16173738
31	0xbd19f1d9	-0.03758416
32	0xbd6f56b5	-0.0584323
33	0xbddcf7dc	-0.10789463
34	0xbd6a8c16	-0.057262503
35	0x3e33d967	0.17563401
36	0x3e890d11	0.2676778
37	0x3de2a116	0.11065881
38	0xbdd93530	-0.10605848
39	0x3dafba3b	0.085804425
40	0x3e3d0795	0.18459924
41	0xbd81795a	-0.06321974
42	0x3e620cf9	0.22075261
43	0xbd4ca67c	-0.04996346
44	0x3b56944a	0.0032742196
45	0xbdd3fc2e	-0.10350834
46	0x3bb7244c	0.0055890437
47	0x3e1b9be7	0.15196191
48	0xbda9089e	-0.08253597
49	0x3f1cfb5a	0.6132103
50	0xbe6e580c	-0.23275775
51	0x3eac338b	0.33633074
52	0x3e5a4661	0.2131591
53	0xbed6eac0	-0.41975975
54	0xbdf7d9d9	-0.12102098
55	0xbd7b6696	-0.06137713
56	0xbc2aa4c5	-0.010415261
57	0xbe189b41	-0.14902975
58	0xbe99cbdc	-0.30038345
59	0xbe102be3	-0.14079241
60	0xbd9c7e2c	-0.07641253
61	0x3e330bd8	0.17484987
62	0x3f00aa5c	0.5025995
63	0x3e0e3632	0.13887861
64	0xbccd0084	-0.02502466
65	0xbb8b54b7	-0.004252042
66	0x3dad46d4	0.08460775
67	0xbd297294	-0.041369036
68	0x3cd0396e	0.02541801
69	0xbe3aeaba	-0.18253604
70	0xbe78eea3	-0.24309783
71	0xbdf61150	-0.12015021
72	0xbe036020	-0.12829638
73	0xbd78a6e1	-0.060706023
74	0xbef1c993	-0.472241
75	0x3e1de48f	0.1541922
76	0x3bbcd18c	0.0057622846
77	0x3de0308a	0.10946758
78	0x3dba6589	0.091013975
79	0xbe4a1e29	-0.19738068
80	0x3e005ba7	0.12534963
81	0xbc803c3e	-0.015653726
82	0xbeaead12	-0.34116417
83	0x3e6507a6	0.22366199
84	0xbe2efb7c	-0.17088121
85	0x3d65d600	0.05611229
86	0xbd29dbe5	-0.041469473
87	0x3d1ceeb5	0.038313586
88	0xbe6c28ec	-0.23062485
89	0xbec9684e	-0.3933739
90	0x3cf845a0	0.030306637
91	0xbdff9bcf	-0.1248089
92	0x3e3561a1	0.17713024
93	0xbc9759a5	-0.018475363
94	0x3d387cf9	0.04504106
95	0x3e8e43f5	0.27786222
96	0xbe135a77	-0.14389978
97	0x3dada012	0.084777966
98	0xbd877993	-0.06614985
99	0x3c79c478	0.015244596
100	0xbeadca05	-0.3394319
101	0xbe0b084c	-0.13577384
102	0xbe1e8980	-0.1548214
103	0xbd05212c	-0.03250234
104	0xbe7f3616	-0.24922976
105	0xbcbd2712	-0.02308992
106	0x3ba3372c	0.0049809422
107	0x3e8a0f06	0.26964587
108	0x3d87adca	0.066249445
109	0xbe0cb142	-0.13739493
110	0xbe03015c	-0.12793487
111	0xbd2dba90	-0.042414248
112	0x3e09888d	0.13430996
113	0x3de6f7b3	0.112777136
114	0xbd1f673e	-0.03891682
115	0xbdf40e76	-0.11916821
116	0xbe110672	-0.14162615
117	0xbe1a0d23	-0.15044074
118	0xbe6962c3	-0.22791581
119	0xbd43a29a	-0.04776249
120	0xbd802262	-0.06256558
121	0x3dec037b	0.11524101
122	0x3e45a022	0.19299367
123	0xbdf4caef	-0.11952769
124	0x3ed4f405	0.41592422
125	0x3e973478	0.29532218
126	0x3f0b2375	0.5435098
127	0xbdf9e6ea	-0.122022465
128	0x3f1b2334	0.6060059
129	0xbdbc693a	-0.09199758
130	0xbecff49e	-0.40616316
131	0xbdca00a8	-0.098634064
132	0x3e0959c1	0.13413145
133	0xbcba9231	-0.022774788
134	0x3f421ab9	0.75822026
135	0x3da613f5	0.08109275
136	0xbd23210a	-0.03982643
137	0xbde3c5b7	-0.111216955
138	0xbdb89f1d	-0.090147234
139	0x3e1f3464	0.15547329
140	0x3de15a8d	0.11003599
141	0x3e0b759f	0.13619088
142	0x3d5b5c46	0.053554796
143	0x3e9dacd1	0.3079591
144	0xbe3bd9ae	-0.18344757
145	0x3d8b42f3	0.06799879
146	0x3d00033a	0.031253077
147	0xbda31e00	-0.079647064
148	0x3d6008c0	0.054695845
149	0x3ddc6ea2	0.10763289
150	0xbe08b9af	-0.13352083
151	0xbdc4e4fe	-0.09613989
152	0xbe454ea6	-0.19268283
153	0xbd35a8df	-0.0443505
154	0x3e4b1041	0.19830419
155	0xbd98770d	-0.07444582
156	0x3daa6c18	0.083213985
157	0x3df32335	0.118719496
158	0xbea75a78	-0.3268621
159	0x3d37bcb3	0.044857692
160	0x3d7c0218	0.061525434
161	0x3e31799f	0.17331551
162	0xbe1a169b	-0.15047686
163	0xbdc3a905	-0.09553722
164	0xbe67e03c	-0.22644132
165	0xbda78be1	-0.08180977
166	0x3e46c5db	0.19411413
167	0x3e2c5b71	0.16831757
168	0x3e4c9030	0.19976878
169	0xbd0e7434	-0.03477879
170	0x3e5a87a9	0.21340813
171	0x3d210ca6	0.039318703
172	0xbe2bcc18	-0.16777074
173	0x3b57f359	0.0032951443
174	0xbdc1a0aa	-0.09454472
175	0xbd87e94c	-0.06636295
176	0xbe8011c2	-0.25013548
177	0x3d7f6602	0.06235314
178	0x3cea8a58	0.02863042
179	0xbcc4d3d0	-0.024026781
180	0xbec2aee2	-0.3802405
181	0xbdd366df	-0.103223555
182	0xbe86bf81	-0.2631798
183	0xbe03df7b	-0.1287822
184	0xbd9be5aa	-0.07612164
185	0xbe0dcf03	-0.138485
186	0xbe09a7bc	-0.13442892
187	0x3e4cea3a	0.20011225
188	0x3dac8140	0.0842309
189	0x3eae7fdf	0.34081933
190	0xbec2a98a	-0.38019973
191	0x3883f6b7	6.292521e-05
192	0x3d4823e8	0.048862368
193	0x3e03e752	0.1288121
194	0xbde547ee	-0.1119536
195	0x3d8e860f	0.069591634
196	0x3e72c83d	0.23709197
197	0x3e7e26cd	0.24819489
198	0x3e87a0a3	0.26489744
199	0xbcf931bc	-0.030419223
200	0x3ed4af3e	0.4153995
201	0x3df7b05a	0.12094183
202	0xbe65f4a9	-0.22456612
203	0xbe866f75	-0.2625691
204	0xbe4ca389	-0.19984259
205	0x3dfd8678	0.123791635
206	0x3e89f038	0.26941085
207	0x3e3147a5	0.17312486
208	0xbe143239	-0.14472283
209	0x3e0b1a7a	0.13584319
210	0xbe56e281	-0.20984842
211	0xbdd4b585	-0.103861846
212	0xbe5ea184	-0.21741301
213	0xbe08903a	-0.13336268
214	0xbd937221	-0.07199503
215	0xbcbc1772	-0.022960398
216	0x3d569aa8	0.052393585
217	0xbdb2f828	-0.08738738
218	0xbdda3eec	-0.10656533
219	0x3c98cc43	0.018652087
220	0xbc8f46ff	-0.017489908
221	0xbe5d36bc	-0.21602911
222	0xbe7a9f37	-0.24474798
223	0x3d971361	0.07376743
224	0xbe937c53	-0.2880579
225	0x3d128930	0.035775363
226	0x3d7fa736	0.062415324
227	0xbe0cd39c	-0.13752598
228	0xbe275202	-0.16339877
229	0x3d88cb6a	0.06679423
230	0xbdb9a390	-0.090644
231	0x3d0167f9	0.031593297
232	0x3d85f03a	0.0653996
233	0xbe6edc83	-0.23326306
234	0x3ea5802b	0.32324347
235	0x3dcd8ab5	0.10036222
236	0x3ee7d55a	0.45279962
237	0x3e2b3cc0	0.16722393
238	0xbe3717ed	-0.1788022
239	0xbe86f43f	-0.2635822
240	0x3ed37ffe	0.41308588
241	0xbdf4bcc7	-0.11950069
242	0x3e4d1bf6	0.20030198
243	0x3d07896b	0.033090036
244	0x3d4a87fb	0.049446087
245	0x3d70e975	0.058816392
246	0xbecfa164	-0.4055282
247	0xbdb86b0e	-0.09004794
248	0x3e2b09fd	0.16703029
249	0x3d956b02	0.07295801
250	0x3e18fd11	0.14940287
251	0x3db991ea	0.09061034
252	0xbdd3051c	-0.10303709
253	0x3da0e3d3	0.07855954
254	0xbd9d374a	-0.07676561
255	0xbdefdcc2	-0.11712028

input_layer.bias f4 [128]
0	0x3da6bce8	0.081415
1	0x3ea2812e	0.3173918
2	0x3dffd499	0.12491722
3	0x3e8d5c0a	0.27609283
4	0xbe479b28	-0.19492781
5	0xbed4d1bf	-0.41566274
6	0x3df636d1	0.12022174
7	0xbe3c7b80	-0.18406487
8	0xbdc92ac6	-0.098226115
9	0xbe4e7330	-0.20161128
10	0x3c6b9417	0.014378569
11	0x3e784eb5	0.24248774
12	0xbdf876fb	-0.12132069
13	0xbe61aff8	-0.22039783
14	0x3ec09dd8	0.37620425
15	0x3dcf2fd1	0.10116542
16	0xbdb1853e	-0.08667992
17	0xbf0bb680	-0.5457535
18	0xbdd09bb9	-0.10185952
19	0xbe1c7906	-0.15280542
20	0xbdddadc5	-0.108241595
21	0xbda1172c	-0.07865748
22	0xbe54dfb6	-0.20788464
23	0xbeb4b0c3	-0.35291108
24	0xbd756999	-0.05991516
25	0xbe54a96b	-0.20767753
26	0xbe362342	-0.17786887
27	0x3e9685c2	0.29398924
28	0x3c882b72	0.016622279
29	0xbeaed7c4	-0.3414899
30	0xbd44ae20	-0.04801762
31	0xbc86960e	-0.016428974
32	0x3d432f80	0.04765272
33	0xbe4c5fb8	-0.19958389
34	0xbec533b9	-0.38516024
35	0xbd275294	-0.040850237
36	0xbe72b9a2	-0.23703626
37	0x3f0b2c88	0.54364824
38	0x3d1d302e	0.038376026
39	0xbcfe6038	-0.03105174
40	0xbe038821	-0.12844898
41	0xbd1f43c7	-0.038882997
42	0xbd14acef	-0.036297735
43	0x3ea6423a	0.32472402
44	0xbdf19e25	-0.11797742
45	0x3ed3d756	0.41375226
46	0xbdd52042	-0.10406543
47	0xbe6cc816	-0.23123202
48	0xbe782514	-0.24232894
49	0xbe397d8e	-0.18114302
50	0xbee28a67	-0.44246218
51	0x3e1a885e	0.15091082
52	0x3ea0da4f	0.31416556
53	0x3ef7a09d	0.48364726
54	0xbe51e25e	-0.20496508
55	0x3e25f7e9	0.16207851
56	0x3e468d85	0.19389923
57	0xbe9e2a7b	-0.30891785
58	0xbea73e4f	-0.32664725
59	0x3f044aef	0.5167684
60	0x3f146f42	0.57982266
61	0x3ca1c183	0.019745594
62	0xbd3402a7	-0.043947842
63	0xbea4aea3	-0.32164487
64	0xbe0944ea	-0.13405195
65	0x3d135eec	0.035979196
66	0x3e5e8a2b	0.21732394
67	0xbe840fb8	-0.25793242
68	0xbe2161ed	-0.15760012
69	0xbeee8e38	-0.4659288
70	0xbd8c0794	-0.06837383
71	0x3db030ab	0.08603033
72	0x3e5afb73	0.21384983
73	0x3e3f98a2	0.18710569
74	0xbe7ff4a0	-0.24995661
75	0xbd9a5949	-0.07536561
76	0xbe840847	-0.25787565
77	0x3d92b3a9	0.07163174
78	0xbe0ccd48	-0.13750184
79	0x3e889f9c	0.26684272
80	0x3e9d7a12	0.30757195
81	0xbd21992a	-0.03945271
82	0x3d8b4ba6	0.06801538
83	0x3e954167	0.2915146
84	0x3f1092a0	0.5647373
85	0xbe442c7d	-0.19157596
86	0x3e5a7d20	0.21336794
87	0x3e05dd17	0.1307262
88	0x3ea36857	0.31915542
89	0x3e254b63	0.16142039
90	0x3d2888b0	0.04114598
91	0x3f0d3a20	0.55166817
92	0x3dbd0015	0.09228531
93	0xbce4ca16	-0.027928393
94	0x3e441452	0.19148377
95	0x3f05c2a9	0.5225015
96	0x3d948ef8	0.072538316
97	0x3cf9be9d	0.0304864
98	0x3d248535	0.0401661
99	0xbee3482b	-0.44390997
100	0x3eaf6e80	0.34263992
101	0xbe10c371	-0.14137055
102	0x3da537f4	0.08067313
103	0x3e896b40	0.26839638
104	0x3ed17814	0.40911925
105	0x3ae24661	0.0017263406
106	0x3dcd52af	0.10025536
107	0xbe668ba6	-0.22514209
108	0xbe841a6e	-0.25801414
109	0xbd8e3d07	-0.06945234
110	0x3bec93eb	0.0072197816
111	0xbda4c71e	-0.08045791
112	0xbdbeb56c	-0.09311947
113	0xbee7421d	-0.45167628
114	0xbe13d80d	-0.14437886
115	0xbec2e40a	-0.38064605
116	0xbe2f2c17	-0.17106663
117	0xbe98d6f3	-0.29851493
118	0x3f0cd1a7	0.55007404
119	0xbd3d9987	-0.046288993
120	0xbdeebe8c	-0.11657438
121	0xbb4c54c8	-0.0031178463
122	0xbeca5b78	-0.3952291
123	0x3de7751b	0.11301633
124	0x3eec4b12	0.46151024
125	0xbe778841	-0.2417307
126	0x3f08460c	0.53231883
127	0xbd58e2e9	-0.052950773

hidden_layer01.weight f4 [128, 128]
0	0xbca704c8	-0.020388022
1	0xbc8e95ac	-0.017405353
2	0xbce98a0e	-0.028508212
3	0x3cf58b9c	0.029973798
4	0xbd191060	-0.037369132
5	0x3c2da488	0.010598309
6	0x3d483b3e	0.048884623
7	0x3db10551	0.08643592
8	0xbd4f2472	-0.050571866
9	0xbd8b8c84	-0.068139106
10	0xbd94c06f	-0.07263266
11	0xbc2ed778	-0.010671489
12	0x3c91f790	0.017818242
13	0xbd534789	-0.051581893
14	0x3da8bcbb	0.082391225
15	0x3d06e8b0	0.03293675
16	0x3d6d55b6	0.05794307
17	0x3db4cbcf	0.08827936
18	0xbd3c87d9	-0.046027992
19	0xbdb04047	-0.0860601
20	0xbd4e35b2	-0.050344177
21	0x3ce57410	0.028009444
22	0xbd385024	-0.044998303
23	0x3d1f0e66	0.03883209
24	0xbd8c078e	-0.068373784
25	0x3c0ad398	0.008473299
26	0x3d6c2622	0.057653554
27	0x3be48950	0.0069743767
28	0x3d728f92	0.05921895
29	0xbc4c52e8	-0.012470938
30	0x3d8e6fa9	0.06954891
31	0xbc8f1cb8	-0.017469749
32	0x3d91ebb5	0.07125036
33	0x3d66cb76	0.05634638
34	0x3d6e622a	0.058199085
35	0x3cf85288	0.030312791
36	0x3d8d90a5	0.069123544
37	0x3cb07b58	0.02154319
38	0xbc43aee8	-0.011943556
39	0x3d1f9d8e	0.038968615
40	0xbd725099	-0.059158895
41	0x3d92c69d	0.07166789
42	0x3db001b5	0.085940756
43	0xbc8be180	-0.0170753
44	0xbd2061ef	-0.039155897
45	0xbd4bc958	-0.049752563
46	0x3d390ee2	0.04518021
47	0x3d950801	0.07276917
48	0x3d9deca1	0.07711149
49	0xbca13ebc	-0.019683234
50	0xbd80b0cc	-0.06283721
51	0xbd94db0a	-0.07268341
52	0xbbf8b860	-0.0075903386
53	0xbd84c5c4	-0.06483033
54	0xbd4f461f	-0.050603982
55	0x3d5d5856	0.05403932
56	0x3d9b00bf	0.07568502
57	0x3d145b06	0.03621962
58	0x3d767f2e	0.06017988
59	0xbc9e8030	-0.019348234
60	0xbc648370	-0.013947353
61	0xbcb622a4	-0.022233315
62	0xbcb6c8d0	-0.022312552
63	0xbd934a9e	-0.071919665
64	0x3d3e9e46	0.04653766
65	0x3d885a3f	0.06657838
66	0x3d4ccfd2	0.05000288
67	0x3da76319	0.08173198
68	0xbd566ff0	-0.052352846
69	0xbda39b4e	-0.079886064
70	0x3daa76eb	0.08323463
71	0xbd208de2	-0.03919781
72	0xbda34bff	-0.079734795
73	0x3da4883d	0.08033798
74	0xbd1b1a8e	-0.03786712
75	0x3daa2dd5	0.08309523
76	0x3cd566cc	0.026049994
77	0xbdaa0d65	-0.08303336
78	0xbd29b59d	-0.041432966
79	0xbda6de12	-0.08147825
80	0x3c1f3228	0.009716548
81	0xbd4aab10	-0.049479544
82	0xb7f29000	-2.8915703e-05
83	0xbda3e7b4	-0.08003178
84	0x3d97d90d	0.07414446
85	0x3d542a7a	0.05179832
86	0x3da2dda7	0.07952433
87	0xbc94ed5c	-0.018179588
88	0x3b3174c0	0.0027077645
89	0x3b9b1a40	0.004733354
90	0x3d66fcbe	0.056393377
91	0xbceb89d2	-0.028752241
92	0xbd00a2a3	-0.031405102
93	0xbbd9a0c0	-0.0066414773
94	0x3d8981b7	0.06714194
95	0x3aa5e080	0.0012655407
96	0xbc809fbc	-0.015701167
97	0x3d4ce99e	0.050027482
98	0x3d8e3d3f	0.069452755
99	0x3ca3f41c	0.020013861
100	0x3cb16c84	0.02165819
101	0x3d60fcea	0.054928698
102	0xbd203571	-0.039113466
103	0xbbb3c170	-0.005485706
104	0x3d2c2cb6	0.042034827
105	0x3d8d6b91	0.06905282
106	0x3cc2c324	0.02377469
107	0x3c24fd60	0.010070175
108	0xbd67a87b	-0.05655716
109	0x3d2193ee	0.039447717
110	0x3b40d8a0	0.0029425994
111	0xbc87abd4	-0.016561426
112	0xbd85b9fa	-0.06529613
113	0xbd9c0686	-0.07618432
114	0x3d98c1b9	0.07458825
115	0xbd35aa4a	-0.044351853
116	0xbd87a4ce	-0.06623231
117	0xbc4c2c10	-0.012461677
118	0xbbc19fd0	-0.0059089437
119	0xbd01d47e	-0.03169679
120	0x3da37f93	0.07983317
121	0x3b87e0f0	0.0041466877
122	0xbb1f8b60	-0.0024344549
123	0xbd06390c	-0.032769248
124	0x3cb658b0	0.022259086
125	0x3d8808f9	0.066423364
126	0xbce53610	-0.02797988
127	0xbccb9230	-0.024849981
128	0xbd1a1725	-0.03761973
129	0xbd83ef9d	-0.06442187
130	0xbbfd18c0	-0.0077238977
131	0x3d16325a	0.036669113
132	0xbd2579df	-0.04039943
133	0x3da6fcef	0.08153712
134	0xbd717220	-0.05894673
135	0xbcf30fc8	-0.029670611
136	0xbced6ed0	-0.028983504
137	0xbd8163ce	-0.06317864
138	0xbd9d7b27	-0.07689505
139	0xbbd2fcd0	-0.006438829
140	0x3af05100	0.0018334687
141	0x3b2d3340	0.0026428252
142	0x3cc93e04	0.024565704
143	0x3d27e262	0.04098738
144	0x3d4572ca	0.048205175
145	0xbd99a50d	-0.07502184
146	0xbbcdd270	-0.0062811896
147	0x3a712080	0.0009198263
148	0x3c6563c0	0.014000833
149	0x3d6f249a	0.058384515
150	0xbc69d000	-0.0142707825
151	0x3cd8bbd8	0.026456758
152	0xbd14d11d	-0.03633224
153	0xbd53fb87	-0.051753547
154	0xbbe73660	-0.0070560426
155	0x3d56cf46	0.052443765
156	0x3a063380	0.00051193684
157	0x3d3ae98a	0.045632876
158	0xbd60c487	-0.054874923
159	0xbba41f90	-0.0050086454
160	0xbd9a0824	-0.07521084
161	0xbd05fa80	-0.0327096
162	0xbd2174d8	-0.03941807
163	0x3be3e010	0.0069542006
164	0xbd108dc5	-0.035291452
165	0xbd4ed1a3	-0.050492894
166	0xbd92f71a	-0.07176037
167	0x3b7cf760	0.0038599595
168	0xbccbcdfc	-0.024878494
169	0xbac7e680	-0.001525119
170	0xbd8eedf1	-0.069789775
171	0xbd01fcbb	-0.031735163
172	0xbd193087	-0.037399795
173	0xbd080b73	-0.033214044
174	0x3c841cfc	0.016127102
175	0xbda1cd92	-0.079005376
176	0x3d0f3d16	0.034970365
177	0xbd7f5c7a	-0.062344052
178	0x3d709b72	0.058741994
179	0xbd2eebde	-0.04270541
180	0xbca5f6f0	-0.02025935
181	0x3d35da8e	0.044397883
182	0x3d446396	0.047946535
183	0xbc3ba6c0	-0.0114533305
184	0x3cd37084	0.025810488
185	0xbd2c7dcd	-0.04211216
186	0x3d6848d2	0.05671007
187	0xbd6194c5	-0.05507352
188	0x3c8e8fcc	0.017402552
189	0xbd7b332c	-0.0613281
190	0xbd93b72d	-0.072126724
191	0xbd02af5d	-0.03190552
192	0x3d39a5aa	0.045324005
193	0xbd25d36c	-0.04048483
194	0xbdb5004c	-0.08837947
195	0xbd8d93e2	-0.06912972
196	0x3d5ffb62	0.054683097
197	0xbc871f10	-0.016494304
198	0xbcd47d92	-0.025938783
199	0x3d34642a	0.044040836
200	0xbd032957	-0.032021847
201	0x3c1f5fd8	0.009727441
202	0x3db1028d	0.08643065
203	0xbc867288	-0.016412035
204	0x3d44135e	0.047870032
205	0x3d98d1d9	0.074619
206	0xbd4aad65	-0.04948177
207	0xb9ff5500	-0.0004870072
208	0xbd80b05e	-0.06283639
209	0xbd8426e9	-0.06452734
210	0x3b159e60	0.0022829995
211	0x3d2cbd8a	0.042172946
212	0x3b8567c0	0.004071206
213	0xbd0c97a0	-0.03432429
214	0xbd3e94f4	-0.04652877
215	0xbd8c6a2e	-0.0685619
216	0xbcb65318	-0.022256419
217	0xbd757215	-0.05992325
218	0xbd5c42fe	-0.053774826
219	0xbd761a4e	-0.06008368
220	0xbc46eba8	-0.012141146
221	0xbdac32e9	-0.08408148
222	0xbd888390	-0.066657186
223	0x3dab5343	0.0836549
224	0x3cf5abe4	0.02998919
225	0xbcdf86d6	-0.027285974
226	0xbd782d56	-0.06059011
227	0x3d44fc42	0.048092134
228	0xbd1b666a	-0.037939467
229	0x3ca7c808	0.020481125
230	0x3d94e973	0.072710894
231	0xbd2b4693	-0.04181535
232	0x3c6cb2b8	0.014446907
233	0x3d6e790a	0.0582209
234	0xbaa70940	-0.0012743846
235	0x3d8e9705	0.069623984
236	0x3d5611ea	0.052263178
237	0x3d5b9416	0.053608023
238	0xbcd58546	-0.026064526
239	0xbd485132	-0.04890556
240	0xbd32c747	-0.043647077
241	0xbd93d1fc	-0.07217786
242	0x3d291b16	0.041285597
243	0x3d3cac42	0.046062715
244	0xbaa2b100	-0.0012412369
245	0x3d968c5b	0.073509894
246	0x3d85d73b	0.065351926
247	0x3d572912	0.052529402
248	0xbda64e7f	-0.08120441
249	0x3d91510f	0.07095539
250	0x3c193f28	0.0093534365
251	0x3d227ad2	0.03966791
252	0x3c8b2f54	0.016990341
253	0x3cc83a8c	0.02444198
254	0xbd3f938b	-0.046771567
255	0xbd9be199	-0.07611389

hidden_layer01.bias f4 [128]
0	0xbbfa0300	-0.007629752
1	0xbc26b350	-0.010174587
2	0x3d992197	0.0747711
3	0x3d41f3e2	0.047351725
4	0xbd9260d6	-0.07147376
5	0x3d8d74f5	0.069070734
6	0xbc5847b0	-0.013200685
7	0x3d9b611d	0.07586882
8	0xbc52cdd8	-0.01286646
9	0x3d86b43b	0.06577345
10	0x3d7217c2	0.05910469
11	0x3d2f1a9e	0.042749994
12	0x3d0b3502	0.0339861
13	0xbd52f5c4	-0.05150391
14	0x3dac9ac3	0.08427956
15	0x3daac52f	0.08338391
16	0xbd91339e	-0.07089923
17	0x3d3a8826	0.045539998
18	0xbd05fa6f	-0.032709535
19	0xbd2c18b5	-0.04201575
20	0x3b1ce440	0.0023939759
21	0xbd62410d	-0.05523782
22	0x3d05b2a8	0.032641083
23	0x3d9bfc03	0.07616427
24	0xbc5159b0	-0.012777731
25	0xbcc943ac	-0.024568401
26	0x3c313850	0.010816649
27	0xbd298fa6	-0.04139676
28	0x3d251122	0.040299542
29	0xbc95c958	-0.018284485
30	0xbcad186c	-0.02112981
31	0x3bbfb2d0	0.0058501735
32	0xbdafa628	-0.08576614
33	0x3daefc93	0.085442685
34	0xbd951fd5	-0.07281462
35	0x3d8e1101	0.06936837
36	0xbc8caaa8	-0.017171219
37	0x3bdb0b80	0.0066847205
38	0xbd19d149	-0.037553106
39	0xbcdb1e94	-0.02674798
40	0xbbb03f00	-0.005378604
41	0xbd6b0b02	-0.057383545
42	0xbd93b04e	-0.07211362
43	0x3d995401	0.074867256
44	0x3d30816e	0.043092184
45	0x3d817e9b	0.06322976
46	0xbd3989ff	-0.04529762
47	0xbcfd9d6a	-0.03095885
48	0xbd9cc9e2	-0.076556936
49	0xbc02c168	-0.007980682
50	0x3ccc146c	0.024912082
51	0x3d941fd9	0.07232637
52	0x3c94ca94	0.018163003
53	0x3d7ac526	0.06122317
54	0xbd0dc5b7	-0.034612384
55	0x3d6cfaea	0.057856478
56	0x3cb02f30	0.021506876
57	0xbd44c594	-0.048039988
58	0xbca49a38	-0.020093068
59	0xbdb181bc	-0.08667323
60	0xbd92396e	-0.0713986
61	0xbd81bf90	-0.06335366
62	0xbd154d3e	-0.036450617
63	0xbd937c9e	-0.07201503
64	0x3dae3caf	0.08507668
65	0x3d7f827a	0.06238029
66	0x3c157608	0.009122379
67	0xbc6e1400	-0.014531136
68	0xbd804d58	-0.06264752
69	0xbc9eb2f8	-0.019372448
70	0x3d4b0fea	0.049575724
71	0xbd61e26e	-0.05514758
72	0x3da63abd	0.08116672
73	0xbd54e8f9	-0.051979993
74	0xbd743128	-0.05961719
75	0x3d2f0a1a	0.042734243
76	0x3dac9e63	0.08428647
77	0x3caa1e70	0.020766467
78	0x3d0345d8	0.03204903
79	0xbbd81550	-0.0065943375
80	0x3d5b4c62	0.05353964
81	0x3d7ba05a	0.06143222
82	0xbcb0c900	-0.02158022
83	0xbc8581d4	-0.016297258
84	0xbd6ee31c	-0.058322057
85	0xbca0b708	-0.019618526
86	0x3c4b53e8	0.0124101415
87	0xbcbfa6f0	-0.023395032
88	0xbd044ea8	-0.032301575
89	0x3be2d710	0.00692261
90	0xbd8434e4	-0.064554006
91	0xbd9a6a45	-0.075398006
92	0xbd9304a3	-0.07178619
93	0x3d4b8ace	0.04969292
94	0xbd77a4cc	-0.060459897
95	0xbda329e4	-0.079669744
96	0xba997300	-0.0011707246
97	0x3ca0f9a0	0.01965028
98	0x3d74909e	0.05970823
99	0xbd162bf5	-0.036663014
100	0x3c730de8	0.0148348585
101	0x3ca7e680	0.020495653
102	0x3d91540d	0.070961095
103	0xbd566801	-0.05234528
104	0x3d857dff	0.065181725
105	0xbcfaa29a	-0.030595113
106	0xbd07a6cf	-0.033118065
107	0xbd974cef	-0.07387721
108	0x3db295c5	0.087199725
109	0xbbe16960	-0.0068790168
110	0x3bbe39f0	0.0058052465
111	0x3d8a90cb	0.06765898
112	0x3d1361fa	0.03598211
113	0xbd50b349	-0.05095223
114	0x3d99a5a9	0.075023
115	0x3c8445dc	0.016146593
116	0xbba2cf60	-0.0049685687
117	0xbd75274e	-0.059851937
118	0x3d5844da	0.052800037
119	0x3d67869e	0.056524865
120	0x3d56c432	0.0524332
121	0xbc67fbd0	-0.014159158
122	0xbcbe7a00	-0.023251534
123	0x3d07ecf2	0.033184953
124	0xbd53b5d3	-0.051687073
125	0x3da386d3	0.079847
126	0xbd8e6054	-0.06951967
127	0xbba86640	-0.0051391423

hidden_layer02.weight f4 [128, 128]
0	0x3d9c5de3	0.07635095
1	0x3c84f008	0.016227737
2	0x3d8a09a3	0.06740119
3	0xbd56732f	-0.05235594
4	0x3cb137f8	0.021633133
5	0xbda8794c	-0.082262605
6	0xbbcf6b50	-0.0063299313
7	0xbd18b6a4	-0.037283555
8	0xbd68a354	-0.056796387
9	0xbd38f779	-0.045157883
10	0xbdae7b6c	-0.085196346
11	0x3c951ea8	0.018203095
12	0xbd9d96d4	-0.07694784
13	0xbc91cb88	-0.017797247
14	0xbd9fc92d	-0.07802043
15	0x3da796a5	0.0818303
16	0xbc8ad8cc	-0.01694908
17	0xbd2e6f98	-0.042586893
18	0xbd7dd3cc	-0.061969563
19	0xbda08c48	-0.078392565
20	0xbd8bbdd2	-0.06823315
21	0xbd5fcbfa	-0.054637887
22	0xbd158405	-0.036502857
23	0x3d82accb	0.06380614
24	0x3d7aab4a	0.06119851
25	0x3db265ff	0.087108605
26	0xbcf5b898	-0.029995248
27	0x3d088d64	0.033337966
28	0x3da5af57	0.08090084
29	0x3c93bfd4	0.018035807
30	0x3d8b9529	0.068155594
31	0x3c6f4040	0.014602721
32	0x3cba09fc	0.022709839
33	0xbcadea9c	-0.021230035
34	0x3d135c48	0.035976678
35	0x3ca8cdc0	0.020605922
36	0x3d1d25e2	0.038366206
37	0x3cdbc980	0.026829481
38	0xbd6b3f9f	-0.05743372
39	0x3d792d2e	0.060834102
40	0x3cc6ca20	0.024266303
41	0x3c58f590	0.01324214
42	0xbcd655ce	-0.026163962
43	0x3d740d96	0.05958327
44	0x3cbcdf14	0.02305559
45	0x3ca522b0	0.020158142
46	0x3cb9f678	0.022700533
47	0x3d965db5	0.07342092
48	0x3d7b928a	0.061419047
49	0xbd81dba6	-0.06340723
50	0xbd8eb6c7	-0.06968456
51	0x3d9961bf	0.07489347
52	0x3d4ca4f6	0.049962007
53	0xb83b7800	-4.4696033e-05
54	0xbd72acb0	-0.05924672
55	0xbce8450c	-0.028353237
56	0xbd53b674	-0.051687673
57	0xbda878dd	-0.08226178
58	0xbd88bf4c	-0.06677112
59	0xbd8bb552	-0.068216935
60	0xbc8191d8	-0.015816614
61	0xbd4e80b2	-0.050415702
62	0x3d13eaa0	0.036112428
63	0x3d9d43e9	0.076789685
64	0x3d8abf0f	0.06774723
65	0xbd88da69	-0.066822834
66	0x3c9281f4	0.017884232
67	0xbd92f36f	-0.071753375
68	0xbd915cf6	-0.07097809
69	0x3d9500a5	0.072755136
70	0xbd149d21	-0.036282662
71	0xbab9c8c0	-0.0014174208
72	0x3d327956	0.043572746
73	0x3d893d1f	0.06701111
74	0x3b89e430	0.0042081103
75	0x3da93301	0.08261681
76	0xbd3ca47a	-0.046055295
77	0xbc4446a8	-0.011979736
78	0x3da46bf3	0.08028402
79	0x3d02eb28	0.031962544
80	0x3caf4a98	0.021397874
81	0x3b490e00	0.003067851
82	0x3d1d3d12	0.03838832
83	0xbda73346	-0.081640765
84	0x3a79bc80	0.0009526685
85	0xbdb49720	-0.08817887
86	0xbb725a60	-0.0036980137
87	0xbcc8df04	-0.024520405
88	0x3d8667c1	0.06562758
89	0x3d536572	0.051610418
90	0xbd106933	-0.035256576
91	0x3d5cda5a	0.053919174
92	0xbac6e340	-0.0015173927
93	0x3d6cec22	0.05784238
94	0xbd01dcb7	-0.03170463
95	0x3db43c73	0.08800592
96	0x3d7e8336	0.06213685
97	0x3d4178d6	0.04723438
98	0xbcd579be	-0.026059028
99	0x3d4aaa9e	0.04947912
100	0x3ce48e48	0.027899876
101	0xbc744c60	-0.014910787
102	0xbdb10762	-0.08643986
103	0x3d15b9a4	0.036553994
104	0x3d9b15f3	0.07572546
105	0x3d84b0e3	0.06479051
106	0xbc6502e0	-0.013977736
107	0xbca943b8	-0.020662174
108	0xbdb4d475	-0.088295855
109	0x3d4cbfc2	0.049987562
110	0xba90fb00	-0.0011061132
111	0x3d9041fd	0.07043836
112	0xbd8832fe	-0.06650351
113	0x3d70bad6	0.05877193
114	0x3d34de3a	0.044157244
115	0xbd204b5a	-0.03913436
116	0x3db2d759	0.087324806
117	0x3d4e09e2	0.050302394
118	0xbd58b2ea	-0.052905
119	0xbd942045	-0.072327174
120	0xbcf5f7e6	-0.030025434
121	0xbda7dff3	-0.08197012
122	0xbbbc6850	-0.0057497397
123	0xbbe75010	-0.0070591047
124	0x3d4e7716	0.050406538
125	0xbd54f679	-0.051992867
126	0xbd2bfce0	-0.041989207
127	0xbd51ec0c	-0.051250502
128	0xbd959550	-0.0730387
129	0x3c8020a8	0.015640572
130	0x3db11935	0.08647386
131	0x3d5f73fe	0.05455398
132	0x3b653280	0.0034972727
133	0xbcf65314	-0.030068912
134	0x3d9243db	0.07141849
135	0x3d86fd73	0.0659131
136	0x3db376b3	0.087628745
137	0xbdaaaa5f	-0.08333277
138	0xbd65f99f	-0.05614626
139	0x3c70e090	0.014701977
140	0xbd5401d6	-0.051759563
141	0x3cbe60bc	0.023239486
142	0x3cd8ec80	0.02647996
143	0x3d0b6ba8	0.034038216
144	0x3da1eec7	0.07906871
145	0xbcbaace4	-0.022787519
146	0xbc4a3078	-0.012340657
147	0x3c985d50	0.018599182
148	0x3c7c2410	0.015389457
149	0x3c807128	0.015678957
150	0x3d940205	0.07226948
151	0x3d5fadc2	0.054609068
152	0x3db126b5	0.08649961
153	0x3c38e2b8	0.011284523
154	0xba6bae00	-0.00089904666
155	0xbda88237	-0.082279615
156	0xbd82273c	-0.063551396
157	0xbd96bdac	-0.07360396
158	0xbda0f67e	-0.07859515
159	0xbd88a4a9	-0.066720314
160	0xbd1db837	-0.03850576
161	0xbcab1be0	-0.020887315
162	0x3d645ee6	0.055754565
163	0xbc736ad8	-0.0148570165
164	0xbc9b1024	-0.018928595
165	0xbd104a73	-0.03522725
166	0xbd4b9f83	-0.04971267
167	0xbc1e47a8	-0.009660639
168	0xbd002361	-0.03128374
169	0x3d987fc7	0.074462466
170	0xbcf5ee82	-0.030020956
171	0xbd062fbe	-0.032760374
172	0x3c2b6318	0.0104606375
173	0x3d6f4f6e	0.05842536
174	0x3d058ede	0.032606952
175	0xbd08d92a	-0.03341023
176	0x3d706b46	0.058696054
177	0x3d34970e	0.04408937
178	0x3d8bcc17	0.068260364
179	0xba83bb00	-0.0010050237
180	0x3d4c5e92	0.049894877
181	0x3c69a9c0	0.014261663
182	0xbd46b6cf	-0.048514184
183	0x3d11a5b0	0.035558403
184	0xbd3bfe40	-0.04589677
185	0xbd40c211	-0.047060076
186	0xbd8189a9	-0.06325085
187	0x3db4d447	0.08829551
188	0xbcb92060	-0.022598445
189	0x3d12d2bc	0.035845503
190	0xbda63671	-0.081158526
191	0x3c483da0	0.012221724
192	0xbd8f1bc0	-0.06987715
193	0x3c5cfc10	0.013487831
194	0x3d9cf261	0.076634176
195	0x3ce9e840	0.028553128
196	0xbc77f990	-0.015135184
197	0x3cb24b70	0.021764487
198	0xbd3c30dd	-0.045945037
199	0x3bee3030	0.007268928
200	0x3d9af7df	0.07566809
201	0x3db409d7	0.08790939
202	0xbd4c48ec	-0.04987423
203	0x3b5c5420	0.0033619478
204	0xbcccdc84	-0.025007494
205	0x3cb454d4	0.022013105
206	0x3ce0dad4	0.027448095
207	0x3c390230	0.011292025
208	0x3da65c53	0.08123078
209	0x3b7b8140	0.00383766
210	0xbd703f57	-0.058654156
211	0x3daef05b	0.08541938
212	0x3d0a1aa2	0.033716805
213	0xbd5a310f	-0.053269442
214	0xbc3cdd88	-0.011527427
215	0x3c843888	0.016140237
216	0xbd3f21a5	-0.046662945
217	0xbd316235	-0.04330655
218	0x3d12beea	0.0358266
219	0xbd24ef3c	-0.040267214
220	0x3d8e845f	0.069588415
221	0x3badf9c0	0.0053093135
222	0x3d63cfae	0.05561798
223	0xbd7bedee	-0.061506204
224	0xbda63684	-0.08115867
225	0xbd756508	-0.059910804
226	0x3b492ee0	0.0030698106
227	0x3d884aaf	0.0665487
228	0x3d218aaa	0.03943888
229	0x3ca8cdec	0.020606004
230	0xbc2f95b0	-0.010716841
231	0x3d95c76d	0.07313428
232	0x3cdfc5d0	0.027316004
233	0x3c534d10	0.012896791
234	0x3cb3aad4	0.021932043
235	0xbd3a6393	-0.045505118
236	0x3d63142e	0.055439167
237	0xbc179f08	-0.009254225
238	0x3cb77398	0.022393987
239	0xbd42b260	-0.047533393
240	0xbd1144a0	-0.035465837
241	0x3d6af68e	0.05736404
242	0xbd09b94b	-0.033623975
243	0xbcd1b2f4	-0.025598027
244	0x3d3d7cf2	0.046261735
245	0xbc8881c0	-0.016663432
246	0x3d7e9cd2	0.062161274
247	0x3d133e4a	0.035948075
248	0xbd81658b	-0.06318196
249	0xbd286acc	-0.041117474
250	0x3c380160	0.011230797
251	0x3ab61040	0.0013890341
252	0x3d671c42	0.056423433
253	0x3b900940	0.004395634
254	0x3d48f6b2	0.049063392
255	0x3daccfab	0.08438047

hidden_layer02.bias f4 [128]
0	0x3c8bbbb0	0.01705727
1	0x3d3a16e2	0.04543198
2	0x3cab28c0	0.020893455
3	0xbd1f9df4	-0.038968995
4	0x3c4b6eb0	0.012416527
5	0x3dad5413	0.084633015
6	0x3d38e5be	0.045140974
7	0xbd81877b	-0.06324669
8	0x3da300ad	0.07959113
9	0xbda517e3	-0.08061197
10	0xbd4aaa9c	-0.049479112
11	0xbda58115	-0.08081261
12	0xbd8eb95e	-0.0696895
13	0x3d67d78e	0.056602053
14	0xbd454d82	-0.04816962
15	0x3db037e1	0.08604408
16	0xbcb950b8	-0.022621498
17	0x3d28fdba	0.041257598
18	0xbd0480b5	-0.032349307
19	0x3c8d9904	0.017284878
20	0x3d8cb663	0.06870725
21	0xbd9fd546	-0.078043506
22	0xbd9a79aa	-0.07542737
23	0xbd32cb4c	-0.04365091
24	0xbcac1f60	-0.021011055
25	0x3c629938	0.0138304755
26	0xbd7f8af2	-0.062388368
27	0xbd5b0309	-0.05346969
28	0x3d1ec5c6	0.03876283
29	0x3d16c4ca	0.036808766
30	0x3d199b9e	0.037501924
31	0xbd0ee412	-0.034885474
32	0xbc0202a0	-0.007935196
33	0x3da3bf0b	0.07995423
34	0x3cba2af8	0.022725567
35	0xbda14326	-0.07874136
36	0x3d692e86	0.056929134
37	0x3d627f3e	0.05529713
38	0xbd9b0f4e	-0.075712785
39	0x3d5bfaae	0.053705864
40	0xbd806f92	-0.0627128
41	0x3bd82810	0.0065965727
42	0xbd5ef460	-0.054432273
43	0x3d4e594a	0.05037812
44	0x3d0846ec	0.03327076
45	0xbd1aa0bb	-0.03775094
46	0xbca7f8dc	-0.020504408
47	0xbc3743a8	-0.011185564
48	0xbd1952b9	-0.037432406
49	0x3d412a0a	0.047159232
50	0xbd36fcf1	-0.044674817
51	0xbcea05fa	-0.028567303
52	0x3ba90ce0	0.0051590055
53	0x3cc9903c	0.02460491
54	0x3c860154	0.016358055
55	0x3d557a82	0.052118786
56	0x3daae221	0.08343912
57	0x3db18d17	0.08669489
58	0xbc8e1eb8	-0.017348632
59	0x3c21d7b0	0.009878084
60	0xbd9c280a	-0.07624824
61	0xbca4a358	-0.02009742
62	0xbd801df4	-0.06255713
63	0xbd91e0a5	-0.07122926
64	0xbd1221dc	-0.035676822
65	0xbd8fc338	-0.07019657
66	0x3d37ed4a	0.04490403
67	0xbd3631fa	-0.044481255
68	0xbd5136cf	-0.05107766
69	0xbd98ad54	-0.07454935
70	0x3d81e9f9	0.06343455
71	0xbda4f00d	-0.080535986
72	0xbc79ce40	-0.015246928
73	0xbcc99880	-0.02460885
74	0x3c8156ec	0.015788518
75	0x3ca9a4a8	0.020708397
76	0x3b418fa0	0.002953507
77	0xbca19c98	-0.01972799
78	0x3d851715	0.06498543
79	0x3d2ea79e	0.04264032
80	0x3d13fb4a	0.03612832
81	0xbd23b109	-0.039963756
82	0x3c259c08	0.0101080015
83	0x3d59f992	0.053216524
84	0x3d4431f6	0.04789921
85	0x3d879dfd	0.06621931
86	0x3c94a450	0.018144757
87	0xbcf2bee2	-0.029632036
88	0x3d6d8f82	0.057998188
89	0x3c098dd8	0.008395635
90	0x3da63e65	0.081173696
91	0xbdac27fd	-0.08406065
92	0xbc262398	-0.010140322
93	0x3cfe29cc	0.03102579
94	0xbd826fce	-0.06368981
95	0xbdad0108	-0.08447462
96	0xbbd63240	-0.006536752
97	0xbc63cf80	-0.013904452
98	0x3cf80384	0.030275114
99	0x3da55a7b	0.080738984
100	0xbd424c2d	-0.047435928
101	0x3db0c3b3	0.08631077
102	0x3d72ec3a	0.059307314
103	0xbd99b8df	-0.075059645
104	0x3c9579d4	0.018246569
105	0x3db4d81f	0.08830284
106	0x3cfa4a4c	0.030553006
107	0xbd58e033	-0.052948188
108	0xbd969a51	-0.07353652
109	0x3b829240	0.0039847195
110	0xbd15a6fd	-0.036536206
111	0x3c27d360	0.010243267
112	0x3d9f0887	0.07765298
113	0x3d60653a	0.054784037
114	0x3da3564f	0.079754464
115	0x3d983aab	0.07433065
116	0x3c58e620	0.01323846
117	0x3d8f3b7d	0.06993768
118	0x3d72b4d6	0.05925449
119	0xbd0ce5d1	-0.034398858
120	0xbd5cc39c	-0.053897485
121	0x3d89f91d	0.06736968
122	0xbcb2535c	-0.021768264
123	0xbdaa21d1	-0.08307231
124	0xbd7192c9	-0.058977876
125	0xbcf23a5e	-0.029568847
126	0x3da6131f	0.08109116
127	0xbc3604d8	-0.011109553

output_layer.weight f4 [4, 128]
0	0x3da2f348	0.079565585
1	0x3dcbcb8e	0.09950934
2	0xbc9b56be	-0.01896226
3	0x3e66bca3	0.22532897
4	0xbce6b465	-0.02816219
5	0xbe7ecb80	-0.24882317
6	0xbd73697e	-0.059426777
7	0x3e2bcaee	0.1677663
8	0x3d1855ea	0.03719131
9	0xbd59bcff	-0.053158756
10	0xbdc69a23	-0.09697368
11	0xbd71eb88	-0.05906251
12	0xbd294ed5	-0.041334946
13	0xbd20d650	-0.039266884
14	0x3d914bd3	0.070945404
15	0xbd2a371a	-0.041556455
16	0xbe508863	-0.20364527
17	0xbe6b031d	-0.22950406
18	0xbf0594b8	-0.5218005
19	0x3b657d1d	0.00350172
20	0x3dfb4234	0.122684866
21	0x3de7777f	0.11302089
22	0x3cf73a1c	0.030179076
23	0x3d82ae05	0.06380848
24	0x3d1f92b4	0.038958266
25	0x3e32afc2	0.17449859
26	0x3d17b03d	0.03703331
27	0xbd3a8dad	-0.04554527
28	0xbe78d2cc	-0.24299163
29	0xbd8a0856	-0.06739871
30	0xbd0d7b5e	-0.03454148
31	0xbd9343ff	-0.071907036
32	0x3c3ebd70	0.011641845
33	0xbc7f94a8	-0.015599407
34	0xbd50507f	-0.050858017
35	0xbe708503	-0.2348824
36	0xbdc6131b	-0.09671613
37	0x3e23d4f3	0.15999202
38	0x3d03ec69	0.03220788
39	0xbd6997ad	-0.057029415
40	0xbe22d29f	-0.15900658
41	0x3d9ec6a1	0.07752729
42	0x3d822a56	0.06355731
43	0x3e3ce3b0	0.18446231
44	0x3d353c01	0.044246677
45	0xbe10608a	-0.14099327
46	0xbd62336e	-0.05522483
47	0xbd2c34a0	-0.042042375
48	0xbbdd73ec	-0.0067582037
49	0xbea78083	-0.32715234
50	0xbecd3712	-0.40081078
51	0x3d9c684b	0.0763708
52	0xbf376b47	-0.7164807
53	0xbdf29e80	-0.11846638
54	0xbdf36a04	-0.11885455
55	0xbf1e6300	-0.6186981
56	0xbf263b72	-0.64934456
57	0x3e0baaf2	0.13639429
58	0xbd9cd175	-0.07657138
59	0xba76aa69	-0.00094095484
60	0xbd89aa86	-0.06721978
61	0xbef6d20c	-0.48207128
62	0xbe76b9bd	-0.24094291
63	0xbeb4290f	-0.35187575
64	0xbde4e2e5	-0.11176089
65	0xbebf2fa2	-0.37341028
66	0xbdc697c3	-0.09696915
67	0xbcbe5aab	-0.023236593
68	0xbf199eaf	-0.60007757
69	0xbc90f138	-0.017693147
70	0xbbf996e2	-0.0076168636
71	0x3d4b2c17	0.049602594
72	0x3f0a7f09	0.5410009
73	0x3e34863e	0.17629334
74	0xbe43e950	-0.1913197
75	0x3e10b288	0.14130604
76	0xbea25e43	-0.3171254
77	0xbc2ba7e5	-0.010477041
78	0x3c150c73	0.009097206
79	0x3dec4626	0.11536817
80	0xbdaf0c1f	-0.08547234
81	0x3db2867f	0.08717059
82	0x3e1a3d12	0.15062359
83	0x3ddbde61	0.10735775
84	0xbcc5baec	-0.024136983
85	0xbea3604f	-0.31909415
86	0xbe87785f	-0.26459023
87	0xbca5111a	-0.020149756
88	0xbe01d6b8	-0.12679565
89	0x3d1c8e69	0.03822175
90	0xbd6b276d	-0.057410646
91	0x3e01c5a5	0.12673052
92	0xbf126a54	-0.57193494
93	0xbdadc93b	-0.08485647
94	0xbf073d3b	-0.52827805
95	0xbe5b7893	-0.21432714
96	0xbd3c0c68	-0.04591027
97	0xbd7d70ee	-0.061875276
98	0xbcf942c5	-0.030427346
99	0xbd68c9b8	-0.056833
100	0x3df9e1a2	0.12201239
101	0x3f267afd	0.65031415
102	0x3e88a906	0.26691455
103	0xba93ed4a	-0.0011285928
104	0x3df0e1f8	0.1176185
105	0xbeaee618	-0.34159923
106	0xbe0a77d0	-0.13522267
107	0x3eb8852b	0.360391
108	0xbe1483c9	-0.14503397
109	0xbe38e40d	-0.18055744
110	0xbd46aaf6	-0.048502885
111	0xbaf5fc41	-0.0018767194
112	0x3e7c8f4d	0.2466404
113	0xbb851074	-0.0040607993
114	0xbf33a8ef	-0.7017965
115	0x3e9b6b36	0.30355233
116	0x3d56a281	0.05240107
117	0x3cc08a1d	0.023503358
118	0xbf1cfffb	-0.61328095
119	0x3d55b768	0.052176863
120	0x3d5fc165	0.054627795
121	0xbe7e6914	-0.24844772
122	0xbdcedb63	-0.101004384
123	0xbdbdaa1a	-0.0926096
124	0x3f24a422	0.64312947
125	0xbe8f180d	-0.27948037
126	0x3d036328	0.032076985
127	0xbe6cd84c	-0.23129386
128	0xbe957cca	-0.2919677
129	0xbe6e808a	-0.23291221
130	0xbd8e664d	-0.06953106
131	0x3df30cf1	0.11867703
132	0xbdf1a279	-0.11798567
133	0x3b895fee	0.004192344
134	0x3df126aa	0.11774953
135	0xbced5f0f	-0.028975992
136	0x3d9e1879	0.077195115
137	0x3da1fabc	0.07909152
138	0x39cee3dd	0.00039461153
139	0x3ea29892	0.31757027
140	0xbd481740	-0.048850298
141	0xbc400835	-0.011720707
142	0xbd7a5496	-0.061115824
143	0x3d777e9c	0.06042348
144	0xbe0715c9	-0.13191904
145	0x3e9febf9	0.3123472
146	0xbda3bca4	-0.07994965
147	0x3b6fd9f7	0.0036598423
148	0xbdbe6b87	-0.09297853
149	0x3c2d0e3e	0.010562478
150	0xbde2fe09	-0.110836096
151	0xbde8a19a	-0.11358948
152	0x3f220884	0.63294244
153	0x3c28e2ce	0.010307981
154	0xbde765ae	-0.11298691
155	0x3e143efc	0.14477152
156	0x3e7563d0	0.23963857
157	0x3d1caa63	0.03824843
158	0x3ba61870	0.005068831
159	0xbd2c3e7d	-0.04205178
160	0xbd5e2f62	-0.054244407
161	0xbdd9985c	-0.10624763
162	0x3c5274e8	0.012845255
163	0xbd926a3f	-0.07149171
164	0x3d1fe855	0.03903993
165	0xbd354aee	-0.04426091
166	0xbcfd4188	-0.030915037
167	0xbd90c96a	-0.07069667
168	0xbe506d46	-0.20354185
169	0x3bdf28d6	0.006810288
170	0xbc8a5fab	-0.016891321
171	0x3d0b8962	0.034066565
172	0x3bfeed11	0.0077797254
173	0xbd941aec	-0.072316974
174	0x3e886fcc	0.26647794
175	0xbca434f6	-0.020044785
176	0xbdcf8c63	-0.101341985
177	0x3bf6ea7e	0.007535278
178	0xbe91c865	-0.284732
179	0x3d9aaed6	0.075528786
180	0x3e72ec2b	0.23722903
181	0x3da8e77e	0.08247279
182	0xbeef0a68	-0.46687627
183	0xbed9592f	-0.42450854
184	0xbe8593f5	-0.26089445
185	0xbeb5babe	-0.35494035
186	0x3d261ba1	0.040553693
187	0xbf185578	-0.59505415
188	0xbe3c32c4	-0.1837874
189	0x3f7519ab	0.9574229
190	0x3e537804	0.20651251
191	0x3e49857f	0.19679831
192	0xbc0f45b1	-0.008744643
193	0xbee997b4	-0.45623553
194	0x3e566aa4	0.20939118
195	0xbe5c8940	-0.21536732
196	0x3ee0d5ff	0.43913266
197	0x3d3b48a5	0.045723576
198	0xbce232ea	-0.027612168
199	0x3e289145	0.16461666
200	0xbd795840	-0.060875177
201	0x3d296a46	0.041361116
202	0x3f621f9e	0.88329494
203	0xbe09620a	-0.13416305
204	0x3e8676da	0.26262552
205	0xbef0e11c	-0.47046745
206	0x3d81ae6f	0.06332099
207	0xbd1e64b5	-0.03867026
208	0x3d68a396	0.056796633
209	0x3de59ec1	0.112119205
210	0x3c402507	0.011727578
211	0xbeae2914	-0.34015715
212	0xbcfa7679	-0.03057407
213	0xbef42f6f	-0.4769244
214	0xbe0b0d59	-0.1357931
215	0xbd9b4977	-0.07582372
216	0xbee71c6c	-0.45138872
217	0x3cb371e1	0.021904888
218	0x3d65d45f	0.056110736
219	0xbe0b81b8	-0.13623703
220	0xbd9afe67	-0.07568055
221	0x3d881ae5	0.06645755
222	0xbd5400f6	-0.05175873
223	0x3e32300f	0.17401145
224	0xbf03783b	-0.5135533
225	0xbcb9ea41	-0.022694709
226	0x3e6acd3d	0.22929855
227	0x3c5c22a4	0.013435993
228	0x3f1738c5	0.59071
229	0xbe6c99f8	-0.2310561
230	0xbe8ab2eb	-0.2708963
231	0xbc54805e	-0.012970058
232	0x3ec4d363	0.38442525
233	0xbe30b7ba	-0.17257586
234	0x3e32157c	0.17391008
235	0xbeba968a	-0.36442977
236	0xbdabff17	-0.08398264
237	0x3e6f3195	0.23358758
238	0x3c1c1537	0.009526542
239	0xbe82e15d	-0.25562564
240	0x3e2ed6d1	0.17074133
241	0x3dfd7dd2	0.12377514
242	0x3e8dad41	0.27671245
243	0xbe248f04	-0.16070181
244	0x3dc25ce8	0.09490377
245	0x3c23434b	0.009964774
246	0x3f23b373	0.6394569
247	0x3e2f5501	0.1712227
248	0x3d3da408	0.04629901
249	0x3cc843bd	0.024446363
250	0x3ec40b18	0.38289714
251	0xbe401d31	-0.18761136
252	0xbeb75051	-0.35803464
253	0xbe3ae02b	-0.18249576
254	0xbee9d8b4	-0.45673144
255	0xbde4d11c	-0.11172697

output_layer.bias f4 [4]
0	0x3edeb45d	0.4349698
1	0x3d626f46	0.0552819
2	0x3eb523f3	0.3537899
3	0x3ebb1822	0.3654185
